…
[INFO] Loading Traning and Test Datasets.
2021-02-17 11:12:33.525556: I tensorflow/core/platform/cpu_feature_guard.cc:142] This TensorFlow binary is optimized with oneAPI Deep Neural Network Library (oneDNN) to use the following CPU instructions in performance-critical operations:  AVX2 FMA
To enable them in other operations, rebuild TensorFlow with the appropriate compiler flags.
Model: "sequential"
_________________________________________________________________
Layer (type)                 Output Shape              Param #
=================================================================
conv2d (Conv2D)              (None, 24, 24, 3)         78
_________________________________________________________________
max_pooling2d (MaxPooling2D) (None, 12, 12, 3)         0
_________________________________________________________________
conv2d_1 (Conv2D)            (None, 10, 10, 6)         168
_________________________________________________________________
max_pooling2d_1 (MaxPooling2 (None, 5, 5, 6)           0
_________________________________________________________________
flatten (Flatten)            (None, 150)               0
_________________________________________________________________
dense (Dense)                (None, 100)               15100
_________________________________________________________________
dense_1 (Dense)              (None, 50)                5050
_________________________________________________________________
dense_2 (Dense)              (None, 10)                510
=================================================================
Total params: 20,906
Trainable params: 20,906
Non-trainable params: 0
_________________________________________________________________

2021-02-17 11:12:33.753183: I tensorflow/compiler/mlir/mlir_graph_optimization_pass.cc:116] None of the MLIR optimization passes are enabled (registered 2)
Epoch 1/20
15000/15000 [==============================] - 60s 4ms/step - loss: 0.0665 - accuracy: 0.5016 - val_loss: 0.0398 - val_accuracy: 0.7513
…
